75/theta.npy (npy, 25904 bytes, 1 tensors)

array f8 [3228]
0	0xbfd54f07ed2ada16	-0.3329486671531482
1	0xbfeade006244f54f	-0.8395997924159618
2	0xbfe1df9b3cef2874	-0.558545702945834
3	0x3fe53739223f962e	0.6629911106981063
4	0xbfd3e7f0d3b5f5c7	-0.3110315387237645
5	0x3fb3f691f8ae328b	0.0779811126832987
6	0xbfe523c87164b0f4	-0.6606180395806676
7	0xbfe5be0a3ad4d137	-0.6794482373284499
8	0xbfdfbe1aa59be5a6	-0.49597803280593167
9	0x3fdd086073c437ad	0.4536362772495249
10	0x3fe8ef8149c15074	0.7792364540605505
11	0x3fdea1c249dd5769	0.47862298215237914
12	0xbfd09f13417a0e44	-0.2597091807767564
13	0xbfe85f660008c9a2	-0.7616453171415751
14	0xbfbf9e12d2c4d0a9	-0.1235057606289184
15	0xbfd16e1a175904f2	-0.27234508781482625
16	0xbfeecc6abc5729f1	-0.962453239300258
17	0xbfd79006ea1a0e54	-0.36816571103574813
18	0x3fbac8141872f932	0.10461545559789867
19	0x3fd3b63d24ee1a92	0.3079979763646544
20	0xbfd0326e077e18a8	-0.2530779908341949
21	0xbfdde463f5fe08c7	-0.4670648481625332
22	0xbfd9814880e91b20	-0.3985158213512694
23	0xbfa4d1af9459b813	-0.04066227613371622
24	0x3fb712efad66f441	0.0901326940865639
25	0x3fd0077c7fa815c3	0.25045692888701526
26	0x3fdb59d44d9117d4	0.4273577458847033
27	0xbfc10134b8087d44	-0.1328493021583005
28	0x3fe665de518d3ff5	0.699935111313606
29	0xbfb61fa007624917	-0.08642006092330622
30	0xbfe1549dcc8d4559	-0.5415791506913293
31	0x3fd00e4be3616bc0	0.2508725853455722
32	0xbfbc51e720ea84c5	-0.11062473825087966
33	0x3fd51fd7808a5a9e	0.3300684695508752
34	0x3fe5bb626bb2a322	0.6791240790817918
35	0xbfe46d86b8d5f9e4	-0.638369904525288
36	0xbf963fe154d5d9a5	-0.021728058627070407
37	0x3ff0e2ac70e06f55	1.0553402337308928
38	0xbff2c2edab2df287	-1.1725899397562516
39	0x3fc26527567c5c21	0.1437119648259975
40	0xbfd5fd2c0e362caf	-0.34357739818433236
41	0x3fe04b599ff08bb4	0.5091980098553592
42	0x3fd631a07f35ddfd	0.34677898810284075
43	0x3fdfb8ca723648b9	0.49565373567123633
44	0xbfea52e7fc5dd8f5	-0.8226203850779529
45	0x3feecbeb310c8b44	0.9623924215305597
46	0x3fe0079a5c9d8b99	0.50092809761951
47	0x3fd69102ef6233ad	0.3526007974367598
48	0xbff5a873979491ff	-1.3536258622272042
49	0x3fddc2f0fa11a44e	0.4650232736663086
50	0xbfcc36950cc39ce9	-0.22041571734664636
51	0x3ff415487ee45bc3	1.2551960903854116
52	0x3fe364730739c50b	0.6060118809820393
53	0xbfef2bbd8cf7f2ca	-0.9740894082347833
54	0xbfd3ce9c80ded559	-0.30948555550579254
55	0x3fef627815ac8381	0.9807701514547348
56	0x3fe1119e4fcb4a06	0.5334006842115862
57	0xbff00e37b7e6925e	-1.0034711059207875
58	0x3fe9d1ec87a897ea	0.8068754815656096
59	0xbf8d222ee612fdb0	-0.014225355526263112
60	0xbfe9c022fb606bbc	-0.8047041806888653
61	0x3ff31c5dbfc9b439	1.1944253436770522
62	0x3fe3a1721d0e8c50	0.6134577338710958
63	0x3f9b729d6bd77938	0.026804408747801406
64	0x3fce980012e942be	0.23901368068120193
65	0xc0030df265dfeec9	-2.381809993645082
66	0xbfcfab97974735d0	-0.24742407690648216
67	0x3fdf972adbb8ecc2	0.49360152680646874
68	0x3fd5b459c16f80b5	0.3391327275294416
69	0x3fc93ba4cfd03347	0.19713268420346194
70	0x3ff651c5cde9e642	1.394964031553528
71	0x3fd72b95a773fc52	0.36203519203985934
72	0xbfa6d16bbf788f22	-0.04456650459567714
73	0xbff16fa469700ef5	-1.0897564047490367
74	0xbfe32c65f507c08c	-0.5991697107074443
75	0xbfe2ba811469e290	-0.585266628141726
76	0xbfc20d3136ffc5db	-0.14102759538177065
77	0xbfd8dfd8098bc407	-0.3886623471472039
78	0xbfec9423643af26b	-0.8930832822439475
79	0x3fbcbb8c6aa42fd4	0.11223676303433133
80	0xbfed73d7d785a7c4	-0.9203910073676913
81	0xbfe3253417b6643e	-0.5982914412626383
82	0x3fed898ad29c7f4e	0.923039828634481
83	0x3fc2e28692a5d70c	0.147538014989259
84	0x3fb6fa13a82afdaa	0.08975336890852384
85	0xbfb0359eb1559be2	-0.0633181746430718
86	0xbfead940cb83fdf6	-0.8390201544679587
87	0x3fd476abd734e854	0.3197431184413564
88	0xbfd702d333ca47d5	-0.35954742486603425
89	0x3febbb1b05e3cdce	0.8665900340114889
90	0xbfd940dacca06f44	-0.39458341582370715
91	0x3fd046c21c0effa0	0.25431874027344215
92	0xbfd10c727a0b1646	-0.266384715254706
93	0x3fddfad6ce2832c6	0.4684350026371188
94	0xbfda73a6439c584e	-0.41330868342027294
95	0x3fc914ed31b9ad18	0.19595112731926956
96	0x3fa184f7c188f17c	0.034217588782186475
97	0x3fa6f7a4f39c991b	0.04485812639022609
98	0xbfca817c144387f0	-0.20707655896609323
99	0xbfd68522a6fa09d1	-0.35187593752212104
100	0xbff12ca6a84dfd2e	-1.0734011244201827
101	0x3ff0888a17e34368	1.0333348210444573
102	0xbfa83d52423dec72	-0.04734284456841288
103	0x3fe6611de3ded7f8	0.6993550730319376
104	0x3fdf28d0f82c88b6	0.4868662284444655
105	0xbfdc7b56ade12566	-0.44502799015443484
106	0xbfd055c2facc487e	-0.2552344750594172
107	0x3fe58df2e7c12f1f	0.6735777403314137
108	0x3fc357a200f614f8	0.1511118416494026
109	0x3fe720f435884056	0.7227726979781532
110	0xbfe06c6dff22ff24	-0.5132360442293913
111	0xbfe2cca5b69706a1	-0.5874813619813787
112	0x3fa119f626dcb338	0.033401195758733626
113	0x3fe061621db2853e	0.5118876056696207
114	0x3fdb18c4071e35e8	0.42338658042066735
115	0xbfe02761bc99973b	-0.5048073466866535
116	0x3fdf5be17510382d	0.48998295242279505
117	0xbfe3e7419ddb509c	-0.6219795306337974
118	0x3fd7f4aba3b2d5b7	0.37430850015820333
119	0xbfee00867b9f50f7	-0.937564126443731
120	0x3fe379243da4107c	0.608537788765275
121	0x3fbe006f7482cb2a	0.11719414324288083
122	0xbffa5e447c8de533	-1.6480145326043611
123	0x3fc37cfa8df8113c	0.15225154811936104
124	0xbff8387cb409e119	-1.5137908013112507
125	0x3fce1a4435525f43	0.2351765880928217
126	0x3fe684c5ed226aad	0.7037076598674809
127	0x3fdf7bddacd70e57	0.4919351756945835
128	0xbfd11ce6a5175a5e	-0.2673889744013759
129	0xbfbee5e3296aa599	-0.12069530259272766
130	0x3fdb3420ae105494	0.4250566196290688
131	0x3fe218a5f34b7ae8	0.5655088188030648
132	0xbfe0a4c8edeb527c	-0.5201153418407354
133	0xbfecfbddc8fcd3fb	-0.9057454038180589
134	0xbfa7255fb70d2c8c	-0.04520701512827782
135	0xbfe55fcace046c23	-0.667943384530535
136	0xbfec5e68297d50cb	-0.8865242777196952
137	0xbfe75a5bdb16b45d	-0.7297801283908815
138	0x3fc4f944e5c8f03d	0.16385709018675412
139	0x3fc0259052ae07f6	0.1261463550291066
140	0xbfdf473647e364de	-0.4887214376481789
141	0xbfdf04165786c05e	-0.4846244673490271
142	0xbfe36207c4fb238f	-0.6057165953908327
143	0x3fb96f598ec9fb02	0.0993553136449741
144	0x3fd1f1e8a84435e2	0.2803899424769424
145	0x3ff9eebc6d45590c	1.6207851665872708
146	0xbfd6e17a151abf18	-0.3575120168779775
147	0xbfd7fa6656f0dbc1	-0.3746581887275476
148	0x3fd815ff43a6a968	0.3763425980238453
149	0xbf5d4681fd7563ce	-0.0017868298944760832
150	0xbfd0a3f7919f1ff7	-0.2600077554784543
151	0x3fd87396e8b74de6	0.38205502248930967
152	0xbfe0072270bd2f93	-0.5008709146436437
153	0xbfe638fc671b675c	-0.6944562925157061
154	0x3fdf57d1d329ba7c	0.4897350847376527
155	0x3febbcbc9137d486	0.8667891346255068
156	0xbfcafb2c54e5be6c	-0.21079019685156497
157	0xbfdfef25452e4564	-0.49897128826076753
158	0x3fec70933af93668	0.8887420799089343
159	0xbfb746150f6685c3	-0.09091312051761861
160	0x3fe2f53e7b57e1fd	0.5924370202110932
161	0xbfd80bdbaa1f9e11	-0.37572375882743453
162	0xbfe72c583531e4bc	-0.7241631545031377
163	0x3fe2896178604bd5	0.5792701102349108
164	0xbfd93092ed7143e2	-0.3935897177480553
165	0xbfd0401b6c1e7b2f	-0.2539127879953637
166	0xbfd600164a07005a	-0.3437553141520816
167	0xbfd868b30397963d	-0.3813903365210967
168	0x3fdc56477c814b34	0.44276606711098343
169	0xbfe69a9a3847bd6c	-0.7063723658774683
170	0x3fe3b74e261ae729	0.6161261314621004
171	0xbfd43daf21d73236	-0.3162648992991167
172	0x3fd5a4d877f8a129	0.3381863757699813
173	0x3fd0ae35fef5fa08	0.2606329908229843
174	0x3fddc0b2d32c36f3	0.46488638517699526
175	0xbfd0016e937ada4e	-0.25008739855130535
176	0x3fc7bbe78f5dcc45	0.18542189121544275
177	0x3fa665008cfcdfb9	0.04373933526079505
178	0xbf71585ea216ca09	-0.0042346665008374884
179	0x3fc300ff5b406209	0.1484679408611245
180	0x3fe73f9fea9f4813	0.726516683813545
181	0xbf98dd37f791d822	-0.02428138207002218
182	0x3fe02a68b5cb2f76	0.5051768828065935
183	0x3fda0434c6aecc6f	0.40650672342889654
184	0xbfe1bbc3278b4601	-0.5541702053398582
185	0xbfe239cdd002d785	-0.5695561468808
186	0x3fc12c5127960f50	0.13416494782370103
187	0x3fd1b33ae4b09443	0.2765643342302761
188	0x3fb8ceff668e26ca	0.09690853360930443
189	0xbfe1120c6f4674b1	-0.5334531949371436
190	0x3fdb9f96c6a35bc1	0.43161553762677946
191	0xbfe1a22a76399080	-0.5510456379966087
192	0xbfd438ff46ad6c13	-0.3159788313111573
193	0x3fb6ec7b6c1ceb61	0.08954593076206897
194	0x3fe316c8c94d8733	0.596531289262407
195	0xbfdb16252b1f3ee6	-0.42322663508546865
196	0x3fb4c95177585ed6	0.08119687236500836
197	0x3fc1f80e7a589a2e	0.14038258527689734
198	0xbff51f466041a7b1	-1.3201354751604237
199	0xbfeb27d5c894ebbc	-0.8486126821147688
200	0x3fd069c843e77ac5	0.2564564383628006
201	0xbfafb0810e532a5f	-0.061893494604721815
202	0xbfb736489539d663	-0.09067205088816759
203	0xbfd97ec40189725e	-0.39836216116035483
204	0x3fe6b38f5e253f0f	0.7094189490107697
205	0x3fd22d5e65dbda28	0.28401908824108313
206	0x3fe338502b859a20	0.6006241655384805
207	0x3fe3b8cde650d8ca	0.6163091181140541
208	0x3ff9502d97179e7a	1.5820747282067757
209	0xbfe212d0c3b0487e	-0.5647968122523392
210	0xbfda955567752030	-0.41536460021279975
211	0xbfe52fba2eaa073e	-0.6620760833177213
212	0x3fecb188a7ff49a8	0.8966716080852182
213	0x3fbb09fa7b953976	0.10562100903664437
214	0x3fec4c029ba2043a	0.8842785873131398
215	0xbfe22c29fadc7f61	-0.5678911113391046
216	0xbfdf6bcd0f33d681	-0.49095465168588964
217	0xbfb3ecaf98af7960	-0.07783029058143631
218	0x3fd32198a27722f8	0.29892555108794694
219	0xbfbb00ec0894af3c	-0.10548281869403991
220	0xbfe7b46cd1c359db	-0.7407745453772877
221	0x3fdb0038efa6e87c	0.4218885746337333
222	0x3fe27d4401518d57	0.5777912164452726
223	0xbfdae5b7a9ccf81c	-0.4202708395204142
224	0xbfdbf95397dda3f1	-0.43709268408434726
225	0xbfe4aafc02584d4c	-0.6458721204566387
226	0xbfd6f2712975d323	-0.358547487724808
227	0xbfdc33780f66a501	-0.4406414175414995
228	0xbff1abe73e4bbb04	-1.1044685777121126
229	0x3fe8ef935124e3a0	0.7792450508924169
230	0xbfe2cfcde01294a1	-0.5878667236726366
231	0xbfb500fe0bd56f87	-0.08204639233502863
232	0x3fee569342f39456	0.9480682666441094
233	0xbfe21f39983d8774	-0.5663116429752635
234	0xbfe4853fa4929c3d	-0.6412656988440016
235	0xbfc6ba724bbc0c31	-0.17756489465691197
236	0x3fbd69ea732ca185	0.11489739715455556
237	0x3fc7ca8e0eaa8a03	0.18586898532983306
238	0x3ff0503b55905782	1.0195878355347934
239	0x3fc4c7714aa51d82	0.16233650345587242
240	0x3fe0de49b5c9e943	0.527134757095418
241	0x3fbc768e2d04f276	0.11118401145081144
242	0x3fc032f6f3ad6db8	0.12655531786263707
243	0xbff81b4e3737eaac	-1.506666389176341
244	0x3ff1e3ace7149ef0	1.1180848146995537
245	0x3fdbd3376311283e	0.434766623253953
246	0xbfc0c7e18c1599ee	-0.13109988536889666
247	0x3fe455555329bc1e	0.6354166626241555
248	0x3fe54c184bc71aa0	0.6655389289888554
249	0xbfe014370111d21a	-0.502467634286009
250	0xbff9a7bbf8b208a5	-1.6034507479348943
251	0x3ffa05e57f7ed90a	1.6264395695012035
252	0xbfe20783c4e53711	-0.5634173246014332
253	0x3fdc15c12f1b3ae2	0.4388277969382398
254	0x3fd12ed25be3e506	0.2684827706685414
255	0xbfeaf543846a9fd3	-0.8424394212970533
